…
2024-03-07 01:01:21.290325: I tensorflow/core/common_runtime/pluggable_device/pluggable_device_factory.cc:306] Could not identify NUMA node of platform GPU ID 0, defaulting to 0. Your kernel may not have been built with NUMA support.
2024-03-07 01:01:21.290355: I tensorflow/core/common_runtime/pluggable_device/pluggable_device_factory.cc:272] Created TensorFlow device (/job:localhost/replica:0/task:0/device:GPU:0 with 0 MB memory) -> physical PluggableDevice (device: 0, name: METAL, pci bus id: <undefined>)
Model: "sequential"
_________________________________________________________________
 Layer (type)                Output Shape              Param #
=================================================================
 conv2d (Conv2D)             (None, 73, 73, 128)       24704

 batch_normalization (Batch  (None, 73, 73, 128)       512
 Normalization)

 conv2d_1 (Conv2D)           (None, 73, 73, 256)       819456

 batch_normalization_1 (Bat  (None, 73, 73, 256)       1024
 chNormalization)

 max_pooling2d (MaxPooling2  (None, 24, 24, 256)       0
 D)

 conv2d_2 (Conv2D)           (None, 24, 24, 256)       590080

 batch_normalization_2 (Bat  (None, 24, 24, 256)       1024
 chNormalization)

 conv2d_3 (Conv2D)           (None, 24, 24, 256)       65792

 batch_normalization_3 (Bat  (None, 24, 24, 256)       1024
 chNormalization)

 conv2d_4 (Conv2D)           (None, 24, 24, 256)       65792

 batch_normalization_4 (Bat  (None, 24, 24, 256)       1024
 chNormalization)

 conv2d_5 (Conv2D)           (None, 24, 24, 512)       1180160

 batch_normalization_5 (Bat  (None, 24, 24, 512)       2048
 chNormalization)

 max_pooling2d_1 (MaxPoolin  (None, 12, 12, 512)       0
 g2D)

 conv2d_6 (Conv2D)           (None, 12, 12, 512)       2359808

 batch_normalization_6 (Bat  (None, 12, 12, 512)       2048
 chNormalization)

 conv2d_7 (Conv2D)           (None, 12, 12, 512)       2359808

 batch_normalization_7 (Bat  (None, 12, 12, 512)       2048
 chNormalization)

 max_pooling2d_2 (MaxPoolin  (None, 6, 6, 512)         0
 g2D)

 conv2d_8 (Conv2D)           (None, 6, 6, 512)         2359808

 batch_normalization_8 (Bat  (None, 6, 6, 512)         2048
 chNormalization)

 max_pooling2d_3 (MaxPoolin  (None, 3, 3, 512)         0
 g2D)

 flatten (Flatten)           (None, 4608)              0

 dense (Dense)               (None, 1024)              4719616

 dropout (Dropout)           (None, 1024)              0

 dense_1 (Dense)             (None, 1024)              1049600

 dropout_1 (Dropout)         (None, 1024)              0

 dense_2 (Dense)             (None, 3)                 3075

=================================================================
Total params: 15610499 (59.55 MB)
Trainable params: 15604099 (59.52 MB)
Non-trainable params: 6400 (25.00 KB)
_________________________________________________________________
Epoch 1/10
2024-03-07 01:01:23.092519: I tensorflow/core/grappler/optimizers/custom_graph_optimizer_registry.cc:117] Plugin optimizer for device_type GPU is enabled.
…
